…
    G_scheduler_type: MultiStepLR
    G_scheduler_milestones: [30000, 40000, 50000, 60000]
    G_scheduler_gamma: 0.5
    G_regularizer_orthstep: None
    G_regularizer_clipstep: None
    checkpoint_test: 50000
    checkpoint_save: 2000
    checkpoint_print: 100
  ]
  opt_path: options/train_unet.json
  is_train: True
  merge_bn: False
  merge_bn_startpoint: -1
  scale: 1

23-05-17 20:55:17.999 : Random seed: 6621
23-05-17 20:55:19.019 : Number of train images: 320, iters: 80
23-05-17 20:55:23.464 : 
Networks name: UNet
Params number: 1339920
Net structure:
UNet(
  (encode1): Sequential(
    (0): Conv2d(1, 48, kernel_size=(3, 3), stride=(1, 1), padding=(1, 1), bias=False)
    (1): LeakyReLU(negative_slope=0.01)
    (2): Conv2d(48, 48, kernel_size=(3, 3), stride=(1, 1), padding=(1, 1), bias=False)
    (3): LeakyReLU(negative_slope=0.01)
    (4): MaxPool2d(kernel_size=2, stride=2, padding=0, dilation=1, ceil_mode=False)
  )
  (encode2): Sequential(
    (0): Conv2d(48, 48, kernel_size=(3, 3), stride=(1, 1), padding=(1, 1), bias=False)
    (1): LeakyReLU(negative_slope=0.01)
    (2): MaxPool2d(kernel_size=2, stride=2, padding=0, dilation=1, ceil_mode=False)
  )
  (encode3): Sequential(
    (0): Conv2d(48, 48, kernel_size=(3, 3), stride=(1, 1), padding=(1, 1), bias=False)
    (1): LeakyReLU(negative_slope=0.01)
    (2): MaxPool2d(kernel_size=2, stride=2, padding=0, dilation=1, ceil_mode=False)
  )
  (encode4): Sequential(
    (0): Conv2d(48, 48, kernel_size=(3, 3), stride=(1, 1), padding=(1, 1), bias=False)
    (1): LeakyReLU(negative_slope=0.01)
    (2): MaxPool2d(kernel_size=2, stride=2, padding=0, dilation=1, ceil_mode=False)
  )
  (encode5): Sequential(
    (0): Conv2d(48, 48, kernel_size=(3, 3), stride=(1, 1), padding=(1, 1), bias=False)
    (1): LeakyReLU(negative_slope=0.01)
    (2): MaxPool2d(kernel_size=2, stride=2, padding=0, dilation=1, ceil_mode=False)
  )
  (encode6): Sequential(
    (0): Conv2d(48, 48, kernel_size=(3, 3), stride=(1, 1), padding=(1, 1), bias=False)
    (1): ConvTranspose2d(48, 48, kernel_size=(3, 3), stride=(2, 2), padding=(1, 1), output_padding=(1, 1), bias=False)
  )
  (decode1): Sequential(
    (0): Conv2d(96, 96, kernel_size=(3, 3), stride=(1, 1), padding=(1, 1), bias=False)
    (1): LeakyReLU(negative_slope=0.01)
    (2): Conv2d(96, 96, kernel_size=(3, 3), stride=(1, 1), padding=(1, 1), bias=False)
    (3): LeakyReLU(negative_slope=0.01)
    (4): ConvTranspose2d(96, 96, kernel_size=(3, 3), stride=(2, 2), padding=(1, 1), output_padding=(1, 1), bias=False)
  )
  (decode2): Sequential(
    (0): Conv2d(144, 96, kernel_size=(3, 3), stride=(1, 1), padding=(1, 1), bias=False)
    (1): LeakyReLU(negative_slope=0.01)
    (2): Conv2d(96, 96, kernel_size=(3, 3), stride=(1, 1), padding=(1, 1), bias=False)
    (3): LeakyReLU(negative_slope=0.01)
    (4): ConvTranspose2d(96, 96, kernel_size=(3, 3), stride=(2, 2), padding=(1, 1), output_padding=(1, 1), bias=False)
  )
  (decode3): Sequential(
    (0): Conv2d(144, 96, kernel_size=(3, 3), stride=(1, 1), padding=(1, 1), bias=False)
    (1): LeakyReLU(negative_slope=0.01)
    (2): Conv2d(96, 96, kernel_size=(3, 3), stride=(1, 1), padding=(1, 1), bias=False)
    (3): LeakyReLU(negative_slope=0.01)
    (4): ConvTranspose2d(96, 96, kernel_size=(3, 3), stride=(2, 2), padding=(1, 1), output_padding=(1, 1), bias=False)
  )
  (decode4): Sequential(
    (0): Conv2d(144, 96, kernel_size=(3, 3), stride=(1, 1), padding=(1, 1), bias=False)
    (1): LeakyReLU(negative_slope=0.01)
    (2): Conv2d(96, 96, kernel_size=(3, 3), stride=(1, 1), padding=(1, 1), bias=False)
    (3): LeakyReLU(negative_slope=0.01)
    (4): ConvTranspose2d(96, 96, kernel_size=(3, 3), stride=(2, 2), padding=(1, 1), output_padding=(1, 1), bias=False)
  )
  (decode5): Sequential(
    (0): Conv2d(97, 64, kernel_size=(3, 3), stride=(1, 1), padding=(1, 1), bias=False)
    (1): LeakyReLU(negative_slope=0.01)
    (2): Conv2d(64, 32, kernel_size=(3, 3), stride=(1, 1), padding=(1, 1), bias=False)
    (3): LeakyReLU(negative_slope=0.01)
  )
  (output_layer): Conv2d(32, 1, kernel_size=(3, 3), stride=(1, 1), padding=(1, 1), bias=False)
)

23-05-17 20:55:23.565 : 
 |  mean  |  min   |  max   |  std   || shape               
 |  0.002 | -0.162 |  0.163 |  0.094 | torch.Size([48, 1, 3, 3]) || encode1.0.weight
 | -0.000 | -0.024 |  0.024 |  0.014 | torch.Size([48, 48, 3, 3]) || encode1.2.weight
 |  0.000 | -0.024 |  0.024 |  0.014 | torch.Size([48, 48, 3, 3]) || encode2.0.weight
…
